py_cnn/parameters_torch/params.pth (torch, 7497 bytes, 6 tensors)

conv1.weight f4 [2, 1, 5, 5]
000000 16 1b 27 bf f4 f0 5c bf e2 28 ee be b1 43 8d be
       -0.65275705 -0.86305165 -0.46515566 -0.27590707
000010 64 14 60 3e 89 50 29 bf 15 ed 36 bf 02 aa bb bd
       0.21882778 -0.6613851 -0.7145551 -0.09163286
000020 ef eb a3 3e 67 13 2a 3f f4 03 81 3f ca 06 0d 3f
       0.3201594 0.66435856 1.0079331 0.55088484
000030 f8 b8 b2 3e 68 3d 0d 3f 4a 2a 44 3f c4 0b c3 3f
       0.34906745 0.55171824 0.7662703 1.5237966
000040 ee 2f 9e 3f 39 b9 2a 3f 7b 34 51 3f 69 32 59 3f
       1.2358377 0.6668888 0.81720704 0.84842545
000050 8b 52 81 3f 12 cc 5c 3f 54 84 0b 3f f0 59 d4 3e
       1.0103315 0.86248887 0.5449879 0.41474867
000060 4d cf 46 3d 51 39 15 3f 6d 46 d7 3e 54 ad 15 3f
       0.04853754 0.5829058 0.42045918 0.584676
000070 6d d2 13 3e aa 09 1f bf 05 b3 70 3f b6 2a 0f 3f
       0.1443574 -0.6212412 0.9402316 0.55924547
000080 18 08 2d 3f c1 c9 1d 3e 11 60 8d bf c1 77 5a 3f
       0.67590475 0.15408994 -1.1044942 0.8533898
000090 d5 76 44 3f 37 f2 36 3f 17 35 07 3e 91 35 9e bf
       0.76743823 0.7146334 0.13203846 -1.2360097
0000a0 b8 20 72 3f 11 23 3f 3f a3 0a 0d 3f dc d5 14 be
       0.94581175 0.7466288 0.55094355 -0.14534706
0000b0 d8 d5 83 bf cf 83 ea 3e 25 28 f6 3e 4a 3a 0a 3e
       -1.0299635 0.45803687 0.48077503 0.13498798
0000c0 98 34 e4 be 7e c1 ed be
       -0.44571376 -0.46436685

conv1.bias f4 [2]
000000 c7 3d 56 3e 85 ba c3 3e
       0.20922004 0.3822824

conv2.weight f4 [4, 2, 3, 3]
000000 04 70 03 3f 15 4b dd be 19 13 82 bf 13 f8 52 be
       0.513428 -0.43221346 -1.0162078 -0.20602445
000010 09 29 58 be b7 42 76 be c0 fb 81 3f 4b e4 66 3f
       -0.21109404 -0.24048887 1.0154953 0.901921
000020 d0 f9 00 3f 2a 3a f3 be 72 ab 74 3e a2 8b 33 3e
       0.50381184 -0.47505313 0.23893526 0.17533734
000030 97 14 e0 be 0f 28 5e bf 56 91 bf be 44 02 c4 3e
       -0.4376571 -0.86779875 -0.3741557 0.3828298
000040 46 dd 17 be 3b 43 3f be c2 7e 1c 3f 37 ad 50 3f
       -0.14830503 -0.1867799 0.6113092 0.81514305
000050 4f f8 24 3f 17 59 0b bf 71 cf 53 bd a2 b6 2c 3e
       0.6444139 -0.54432815 -0.051711503 0.16866544
000060 00 1e 25 3e b9 96 0a be 6b 04 5d bf 4d b4 53 3e
       0.16124725 -0.13534059 -0.86334866 0.20674248
000070 92 ce 84 3e 8f 3b dd bd 0c e2 f3 be c3 ec e8 bd
       0.2593885 -0.108023755 -0.47633398 -0.11373284
000080 0c 32 9d be 12 06 5e bf 7c 58 2c bf 9f 3e 3d bf
       -0.30702245 -0.8672801 -0.67322516 -0.7392368
000090 db 45 a1 3d 04 1e d4 bd 07 c4 72 bf dd f4 b7 bd
       0.07874652 -0.103572875 -0.94830364 -0.08982251
0000a0 7d 8d 10 bf f8 a6 32 bf 88 9a 6d 3e f7 f6 cf be
       -0.56465894 -0.69786024 0.2320348 -0.40618107
0000b0 74 72 c2 be 75 d3 b6 be cc 94 88 3e 33 0f d7 3e
       -0.37977946 -0.35708204 0.26676023 0.42003784
0000c0 a4 58 f8 be 1c 42 d4 3e 71 48 bc 3e 1d 1a f8 3e
       -0.48505127 0.41456687 0.36774018 0.48457423
0000d0 7c 38 72 3f ee f0 6c bd 69 44 82 be 6b cd 87 bf
       0.9461744 -0.057846956 -0.25442818 -1.0609564
0000e0 c7 3e 8c be 46 a3 09 3e 9a 8e aa 3e 60 a2 02 3f
       -0.27391645 0.1344119 0.3331192 0.51029015
0000f0 36 9a 5c 3f 0f c7 0a 3e ee c6 a2 be 48 1f 16 3f
       0.8617281 0.13552497 -0.31792396 0.5864148
000100 b7 1f 77 3f 29 72 4c bf 46 31 b5 bf 97 08 55 bf
       0.9653277 -0.79861695 -1.4155662 -0.8321623
000110 e1 b6 29 bf 4d 94 9d be 11 d6 14 bf bf e1 07 bf
       -0.66294676 -0.30777207 -0.5813914 -0.53078836

conv2.bias f4 [4]
000000 2c ce f4 be 27 ca 85 bf d3 e5 e5 3e fb 12 07 3f
       -0.47813547 -1.0452317 0.44901904 0.52763337

dense1.weight f4 [10, 100]
000000 69 f8 32 3e 32 1a e9 3e ed c6 87 3e 73 fb 97 3e
       0.17477573 0.45527798 0.26518956 0.29684028
000010 99 14 23 3f da ac eb 3e 33 4f 1b be 1c f5 6b bf
       0.63703305 0.46030313 -0.15166931 -0.9217088
000020 71 eb bb bf 41 6d 8d 3c 89 19 f4 bd 67 57 22 bf
       -1.4681226 0.01726401 -0.11918933 -0.63414615
000030 88 44 fc 3d ad e9 38 3d 29 bd 10 bf c1 48 57 bf
       0.12317759 0.045144726 -0.56538635 -0.8409539
000040 7f 60 9f be 31 18 2d 3f 96 83 00 3e 11 dd 2a bf
       -0.31128308 0.6761504 0.12550196 -0.6674357
000050 8c 3d 28 bf c3 6b b8 be 8a 53 b9 3e 42 7a 44 3d
       -0.65718913 -0.36019716 0.36196548 0.047968157
000060 ac b4 89 be ca 9b 4c be 64 a6 b1 be 95 22 ee 3d
       -0.26895654 -0.19981304 -0.34697258 0.1162769
000070 b4 b8 d3 3e 95 27 be be de df 0c bf 76 42 7e bf
       0.41351855 -0.37139574 -0.55029094 -0.9932016
000080 20 28 9d 3c f3 21 f7 3e 01 aa 8f be c5 8e 3d bf
       0.019184172 0.4826809 -0.2805939 -0.74045974
000090 58 39 ca bf 82 0d 0a bf 89 2f 4f be dc c3 98 be
       -1.579875 -0.5392686 -0.20232977 -0.2983693
0000a0 f0 07 1e 3d f5 26 09 bf db 38 7b bf 1e 3d ba 3d
       0.03858179 -0.5357507 -0.9813363 0.090936884
0000b0 7f db 0a 3f 59 fc d0 3e 66 13 b6 3e b0 a3 e4 3e
       0.54241174 0.40817526 0.35561675 0.44656134
0000c0 50 32 30 3f 30 e5 a9 3e 7f a3 09 3d 99 33 72 3e
       0.6882677 0.3318267 0.033603188 0.23652495
0000d0 55 22 1e bf 6c cb f2 bd 54 fb 91 3e 07 93 68 be
       -0.61771137 -0.11855206 0.2851206 -0.22712336
0000e0 c8 30 a8 3e 51 e8 cf 3e 0b 5a 18 bf aa 82 b4 be
       0.32849717 0.4060693 -0.59512395 -0.3525594
0000f0 7c 44 b8 3e bf f9 22 3f ed 53 71 3f 16 09 03 bf
       0.3598975 0.6366233 0.94268686 -0.5118574
000100 35 03 ca 3d 45 66 84 3e 60 28 55 3f 87 34 b9 be
       0.09863893 0.25859275 0.8326473 -0.36172888
000110 eb 1e 85 be 43 46 c7 3e 0e 0f fd be ee fc 23 bf
       -0.2600015 0.38920793 -0.49425548 -0.64057815
000120 27 4e 73 be 76 3f 85 3e e6 72 b4 3e b0 5c 15 3e
       -0.23760282 0.2602498 0.3524391 0.14586139
000130 e4 6c 95 3e 4d eb f2 3d 06 8a f7 bd 1c 68 c4 bd
       0.2918464 0.11861286 -0.12086873 -0.0959017
000140 0b a1 ae 3e 7b 6d 79 3e 64 15 e5 3d c5 a1 56 bf
       0.3410724 0.2435817 0.111857206 -0.8384059
000150 15 48 ae bf b2 93 d3 bc 77 76 1b bf 0a 09 87 be
       -1.3615748 -0.025827263 -0.6072764 -0.26374084
000160 b4 6e b3 3e ab b9 11 c0 55 0c 89 be 6a f1 84 bf
       0.35045397 -2.2769573 -0.2676722 -1.0386174
000170 dc 56 ae 3d 8e 91 2c 3f 56 a8 b2 be 7f 32 93 be
       0.08512661 0.674096 -0.34894055 -0.28749463
000180 22 dd 9d bf 5a 39 99 be 11 73 39 3f 39 8f f3 3e
       -1.2333109 -0.29926568 0.724412 0.47570208
000190 d1 1b 14 bf e0 99 07 bf 3f 62 a7 3e 0f 56 39 3e
       -0.57854944 -0.5296917 0.32692143 0.18099235
0001a0 34 b3 29 bf 60 22 e0 be ef c1 d3 bd ac d3 56 bf
       -0.6628907 -0.43776226 -0.10339724 -0.83916736
0001b0 98 61 48 bf f8 e2 3d bf 6b fa 31 be 8d 45 8b be
       -0.78273916 -0.7417445 -0.17380683 -0.272015
0001c0 4a 15 90 bf 4c 20 76 bf 8a bf 7f be ed bc c4 3e
       -1.1256497 -0.9614303 -0.2497541 0.3842539
0001d0 d6 31 46 bc 98 42 c6 bf c0 73 89 3e c8 61 27 3f
       -0.012096843 -1.5489073 0.26846123 0.6538358
0001e0 24 13 d1 bd df bd 19 bf 82 f9 8a bf 02 59 05 be
       -0.10208729 -0.60055345 -1.0857394 -0.13022235
0001f0 57 ae ad bc 4e bf 91 bd 84 32 fa 3d f7 77 31 bf
       -0.021201296 -0.071165666 0.12216666 -0.69323677
000200 d0 41 3f bf 60 f4 fd bd 1b ce 96 be 9d 03 88 3e
       -0.74709797 -0.124001265 -0.2945412 0.26565257
000210 5e a8 ac bd 3e 67 c4 bf 5a 29 74 be dd ae 9c be
       -0.08430551 -1.5344007 -0.238439 -0.3060216
000220 b2 a8 ac 3d e5 7c ea be d8 4c 80 bf 74 80 c1 be
       0.084306136 -0.45798412 -1.0023451 -0.37793314
000230 6a 9e 89 bf 75 2b 7a be 53 db 02 be af be cd be
       -1.0751469 -0.2443064 -0.12778978 -0.40184543
000240 9b 1e d7 be 2f 6c 2e be 43 e5 be 3e f1 76 57 3e
       -0.42015538 -0.17033456 0.37284288 0.21041466
000250 92 89 aa be ad 35 a3 3e 35 c5 2e 3f fe 33 7b 3f
       -0.33308083 0.3187689 0.68269664 0.9812621
000260 92 ef d1 3f 00 88 43 3f ef 56 a2 3d d1 dd c6 3e
       1.6401236 0.76379395 0.079267375 0.38841107
000270 4b 75 57 3f 0c 73 44 3f 4d b3 3b 3f 89 0f 94 be
       0.8416335 0.7673805 0.73320466 -0.28918102
000280 6d eb 20 3f 29 54 41 bd f8 58 52 3f f4 c3 e3 3e
       0.6285923 -0.047199402 0.82167006 0.44485438
000290 32 f7 fa be 7e d7 8c 3e f1 4c 28 3f 57 c6 64 3e
       -0.4901672 0.27508157 0.65742403 0.22341286
0002a0 19 49 7f 3d 5f 77 12 be cc 14 db bd 89 3d 2b 3f
       0.06232557 -0.14303349 -0.10697326 0.6689077
0002b0 b5 d2 9f 3e fe e7 39 be 53 65 37 be da 38 87 be
       0.31215444 -0.18154904 -0.17909746 -0.26410562
0002c0 e6 79 07 be 59 21 29 bf a7 55 24 bf e7 43 69 bf
       -0.13230094 -0.6606651 -0.64193195 -0.91119236
0002d0 8d 0c e2 bd 72 44 10 3f eb d9 54 3f 2a e1 e2 bd
       -0.1103755 0.5635444 0.83145016 -0.11078103
0002e0 ce 47 b4 3d 05 de 8d be d6 a4 3c 3f 9d 29 bc 3d
       0.08802758 -0.2770845 0.7368902 0.091876246
0002f0 55 da b5 bf ba b4 00 3f 17 52 45 3e cc 07 8d 3f
       -1.4207255 0.50275767 0.19269596 1.1018004
000300 8d 8c 84 be 19 c4 20 3d 7b f4 16 3f f7 00 68 3e
       -0.25888482 0.039249513 0.589668 0.22656618
000310 ea 38 3c 3f e8 43 52 3e 5d 07 92 bc 68 0f 29 be
       0.73524344 0.20533717 -0.017825777 -0.16509783
000320 8a af cf bd 07 27 0f bf 99 dc 22 bf 7a 03 ab be
       -0.10140903 -0.55918926 -0.63617855 -0.3340109
000330 89 f4 2c bd 5e 71 0d 3f 32 2f ef bc 3a e3 a5 bd
       -0.042225394 0.5525111 -0.02919731 -0.08099981
000340 ce c8 d2 bd ce f6 20 be 5e 83 49 3f 70 68 fb 3e
       -0.10292207 -0.15719149 0.78716075 0.49103117
000350 a4 5c e0 3e d3 11 bb 3e 6b e6 47 3d e9 10 37 bd
       0.4382068 0.36537036 0.048803728 -0.04469386
000360 a4 95 86 bd da 52 95 bd 85 4c a6 bd 2b 49 23 3f
       -0.065715104 -0.07291193 -0.08120064 0.6378352
000370 09 6a 1a bf bc a0 ef be a0 43 0b 3e 4d d7 cc 3e
       -0.60318047 -0.46802318 0.13600016 0.4000801
000380 57 10 03 3f a3 74 b1 3e 74 f7 d2 3e 18 e3 42 3f
       0.5119681 0.346593 0.41204417 0.7612777
000390 4d c4 8f 3e 96 34 fd be 09 35 67 3f ad e3 6c 3f
       0.28079453 -0.49454182 0.903153 0.92534906
0003a0 37 8f 28 3f c6 4f 98 bc 48 e9 e9 bf 96 e0 c7 bc
       0.6584353 -0.018592726 -1.8274317 -0.024399083
0003b0 08 f0 c1 be 92 4b 95 bf 50 aa 85 bf 0c ad 03 bf
       -0.37878442 -1.1663687 -1.04426 -0.51435924
0003c0 e3 49 ed be 04 89 65 bf 2a 5a ef be 94 d5 d0 3e
       -0.46345434 -0.89662194 -0.46748477 0.40787947
0003d0 d1 b1 84 3f 92 98 b4 3e d1 0b b0 3e 0c 0b 0a 3f
       1.0366765 0.35272652 0.34384015 0.53923106
0003e0 2b fb 49 3f a6 f0 af 3f fb 38 e9 be 59 c4 66 bf
       0.78898877 1.3745315 -0.45551285 -0.9014335
0003f0 be a1 c7 be 54 f4 99 3d ae a3 00 3e 87 5c 84 be
       -0.38990587 0.07517305 0.12562439 -0.25851843

dense1.bias f4 [10]
000000 07 a9 bb 3d 10 96 d3 3d 22 6e 4f be a3 e6 31 be
       0.09163099 0.103313565 -0.20256856 -0.17373137
000010 d5 ed 28 3d 53 09 0b be ac 90 8e bc 66 f6 80 be
       0.04124244 -0.13577776 -0.01740297 -0.25187987
000020 3b b8 f2 3e e0 99 09 3d
       0.47406182 0.033594012
