py_cnn/parameters_torch/params.pth (torch, 7497 bytes, 6 tensors)

conv1.weight f4 [2, 1, 5, 5]
-0.25682923 -0.17749704 -0.13368142 -0.22738442 -0.4900357 0.17916292 0.87328947 0.55938596
0.32843426 0.28486416 0.7831153 1.0602195 0.88895106 0.7153182 1.2312069 1.5279412
1.4642324 0.62052315 0.88896346 1.4906985 0.33966115 -0.091189995 -0.46841773 -0.81166923
0.05501783 -0.59688526 -0.6371501 -0.61588687 -0.03317279 0.31242484 -0.9917318 -0.50164765
-0.17407319 0.33212766 0.23871516 -0.4912959 0.31677273 0.5501719 0.56875044 0.40378606
-0.17394799 0.44789585 0.43783438 0.7592141 0.45894197 0.0971203 0.5519696 0.41085562
0.380233 0.4850754
00000000: 1f7f 83be c9c1 35be c8e3 08be 76d7 68be
00000010: f6e5 fabe 7c76 373e e68f 5f3f eb33 0f3f
00000020: 8928 a83e b7d9 913e 3f7a 483f 46b5 873f
00000030: 4c92 633f 181f 373f 3098 9d3f 9493 c33f
00000040: f86b bb3f 9bda 1e3f 1c93 633f 35cf be3f
00000050: 11e8 ad3e d2c1 babd 73d4 efbe 8ec9 4fbf
00000060: 605a 613d 79cd 18bf 451c 23bf c3aa 1dbf
00000070: 31e0 07bd 26f6 9f3e 23e2 7dbf fb6b 00bf
00000080: 3e40 32be a30c aa3e bf71 743e 238b fbbe
00000090: 0930 a23e 11d8 0c3f a199 113f 0cbd ce3e
000000a0: 6c1f 32be 9b52 e53e d42b e03e db5b 423f
000000b0: 71fa ea3e 02e7 c63d e14d 0d3f ab5b d23e
000000c0: e6ad c23e ce5b f83e

conv1.bias f4 [2]
0.46965206 0.8833598
00000000: 3c76 f03e de23 623f

conv2.weight f4 [4, 2, 3, 3]
-0.11328788 0.5213342 0.5143871 0.45221275 -0.030652363 -0.6108373 0.29542255 -0.5531569
0.045253064 0.32043687 0.16713011 0.07242981 0.1669746 -0.7068518 -0.76517105 -0.93020904
-0.36632034 -0.4408063 -0.41305512 -0.032343097 0.15245353 0.5232271 0.74991053 0.6891092
-0.5603226 -0.71854746 -0.5146067 0.09867821 0.0019098745 0.4982569 -0.30178 -0.24877016
0.1775441 -0.5850211 -0.7386172 -0.6629708 -0.03103939 0.5524532 0.44293907 -0.9900964
0.14547664 0.34001338 -0.7455489 -0.23330306 0.045130055 -0.2456947 0.1217127 -0.40486777
-0.849251 -0.38520002 0.22828102 -0.559341 0.07791042 0.6974633 0.5503639 -0.9183743
-0.3739203 -0.014422652 -0.7049762 0.046254992 -0.6465002 -0.055652358 0.28182015 0.3421779
-0.5127234 0.30610567 -0.8506326 -0.27633137 0.67371625 0.07568697 0.548468 0.35438982
00000000: 7a03 e8bd 2876 053f dfae 033f 6e88 e73e
00000010: aa1a fbbc d55f 1cbf a041 973e b19b 0dbf
00000020: 475b 393d 4d10 a43e 2824 2b3e 1556 943d
00000030: 64fb 2a3e 3df4 34bf 40e2 43bf 2e22 6ebf
00000040: 578e bbbe 5db1 e1be f67b d3be 327a 04bd
00000050: c71c 1c3e 36f2 053f 23fa 3f3f 7669 303f
00000060: 4d71 0fbf baf2 37bf 44bd 03bf cd17 ca3d
00000070: c154 fa3a 871b ff3e e882 9abe 9bbd 7ebe
00000080: 1fce 353e f1c3 15bf 0416 3dbf 74b8 29bf
00000090: 5246 febc 936d 0d3f e9c8 e23e f576 7dbf
000000a0: d4f7 143e 3c16 ae3e 4bdc 3ebf ffe6 6ebe
000000b0: 4bda 383d 6497 7bbe 8244 f93d d44a cfbe
000000c0: 8368 59bf f038 c5be 80c2 693e f930 0fbf
000000d0: 808f 9f3d f48c 323f a6e4 0c3f 941a 6bbf
000000e0: 7b72 bfbe fd4c 6cbc 5279 34bf e075 3d3d
000000f0: 0981 25bf baf3 63bd bb4a 903e f131 af3e
00000100: d741 03bf e2b9 9c3e 0fc3 59bf 4e7b 8dbe
00000110: ab78 2c3f c501 9b3d 6668 0c3f 9572 b53e

conv2.bias f4 [4]
-1.3308545 -0.2832172 -0.6268837 -0.1762062
00000000: 7159 aabf d801 91be 737b 20bf 666f 34be

dense1.weight f4 [10, 100]
-0.27728307 -0.26237658 0.028972011 -0.3431044 -0.49725115 -0.2810326 0.30388394 0.45725965
0.013722764 -0.35925412 -0.42396018 0.3742976 0.21780449 -0.9373823 0.164026 -0.3859419
-0.2775272 -0.742438 -0.2934421 0.4904639 -0.32799453 0.11332444 0.20400055 0.5094833
0.015291859 -0.72160953 -0.5506599 -0.013620208 -0.5937512 -0.798223 -1.2648035 -0.5757203
0.39295986 0.1829014 -1.2378758 -1.66648 -0.9489455 -0.2869128 -0.9095605 -0.24253072
-0.10016846 -0.8885697 -0.7414575 -0.20582686 0.52870756 0.5462972 0.5068268 0.41654438
0.4765581 0.2701199 -0.058346987 0.09734662 0.37356892 -0.20073186 -0.5250604 0.41394377
-0.18933873 -0.47747758 0.71115905 0.5523892 0.3807064 -0.9791709 -0.66063297 1.0003054
0.73240346 0.40819842 -0.21626976 -1.3286514 0.30268532 0.16837738 0.30140024 0.28367788
-0.39672112 -0.5690399 0.20881617 0.22689913 0.34887958 0.09831421 -0.45034266 -1.0318247
0.28907436 0.05838807 -0.66588664 -0.7284015 -1.0923582 -0.15453772 -0.022931073 0.38551623
0.780099 0.053260434 -0.48680902 -0.6305812 0.6926193 0.832945 0.3020593 -0.023971733
-1.1877191 -0.18830515 0.31722334 0.3569212 -0.195126 -0.9131216 0.1815592 0.8919527
-0.056268256 -0.26851335 -0.9159645 0.2563128 0.29599664 -1.0501918 0.11890468 -0.14738336
0.4200068 0.19734558 -0.9954287 -0.15912238 -0.0013012633 -0.38530773 -0.25356603 -1.2206842
0.22228661 -0.05629949 0.3470522 -0.54736 0.35418946 0.32236367 -0.48743936 -2.075091
-1.1995232 -0.23576301 -0.105889186 0.045236472 -1.1050307 -0.7096787 -0.4818056 -0.4130961
-0.5574867 -1.1189942 -0.3553407 -0.46282303 -1.546432 0.24336104 -0.047158718 -0.29566178
-0.5293055 -0.1107802 0.5096742 0.41093367 -0.13186802 0.3459181 -0.27225807 0.001806863
0.48087725 1.4420705 0.4467826 -0.60646963 0.4171409 0.94113773 -0.72889787 -0.57114476
-0.35787767 0.31202596 0.57376885 -0.9452724 0.07995048 -0.41368055 0.28848234 0.41951442
-0.5497268 0.07632617 -0.5203492 -0.039659634 0.48709393 0.24564432 0.5169357 -0.28701583
0.103193745 -0.051464316 0.81521827 -0.015247412 -0.2403988 0.44074252 0.5099369 -0.7807656
0.5802666 -0.26289657 0.70577145 -0.2263554 0.03816002 0.66416174 0.069338635 0.9170155
-0.23204759 0.6584318 -0.33104253 0.24793914 0.4646395 0.5724846 -0.46967646 -0.00013676385
0.8059476 0.30333856 -0.0070574363 -0.47441518 -0.40600583 0.33412436 -0.23983781 -0.16935405
-0.48399824 -0.21603142 0.7093286 -0.26892245 -0.36382216 -0.23839563 0.12798892 0.17062902
0.5178116 0.25391918 0.2840257 -0.25794715 0.024839088 0.36728838 -0.029021483 -0.08491023
0.5849437 0.50761527 0.5142294 0.4487024 -0.29485488 -1.2470658 1.0693494 0.91384286
0.5258112 -0.49939996 -0.9928596 -0.46342564 -0.45249325 -0.3447326 -0.45446727 0.5306995
-0.67687416 -0.41332048 -0.23579891 0.12461537 0.64639086 0.39823222 -0.0017379728 -0.24704418
0.28834516 0.8473859 -0.31373572 0.39961755 0.37347806 0.4375906 0.12797277 -0.07306328
00000000: 0cf8 8dbe 3956 86be b656 ed3c 61ab afbe
00000010: b497 febe 81e3 8fbe ad96 9b3e f01d ea3e
00000020: 72d5 603c 28f0 b7be 4f11 d9be efa3 bf3e
00000030: 2408 5f3e 49f8 6fbf 6ff6 273e 2d9a c5be
00000040: 0c18 8ebe 6b10 3ebf 0b3e 96be 161e fb3e
00000050: e6ee a7be a516 e83d 85e5 503e 7f6d 023f
00000060: b58a 7a3c 67bb 38bf 0cf8 0cbf 4b27 5fbc
00000070: 1400 18bf 5858 4cbf 15e5 a1bf 6862 13bf
00000080: 0932 c93e 814a 3b3e b772 9ebf 374f d5bf
00000090: 18ee 72bf 3ce6 92be f5d8 68bf f959 78be
000000a0: 1f25 cdbd 4e79 63bf 29d0 3dbf 47c4 52be
000000b0: 6159 073f 22da 0b3f 67bf 013f 4e45 d53e
000000c0: 6cff f33e 284d 8a3e 40fd 6ebd aa5d c73d
000000d0: 6d44 bf3e a78c 4dbe 5c6a 06bf 70f0 d33e
000000e0: 03e2 41be f177 f4be 850e 363f 6169 0d3f
000000f0: f3eb c23e f2aa 7abf 3e1f 29bf 020a 803f
00000100: cb7e 3b3f 62ff d03e d275 5dbe 4011 aabf
00000110: 92f9 9a3e 1f6b 2c3e 2251 9a3e 3a3e 913e
00000120: 081f cbbe 99ac 11bf e8d3 553e 3f58 683e
00000130: 58a0 b23e f658 c93d 5093 e6be d512 84bf
00000140: 8e01 943e 5428 6f3d 8c77 2abf 8578 3abf
00000150: 65d2 8bbf 233f 1ebe f2d9 bbbc 6262 c53e
00000160: 91b4 473f 9d27 5a3d 083f f9be c56d 21bf
00000170: 804f 313f e23b 553f 84a7 9a3e 5e60 c4bc
00000180: 2e07 98bf 11d3 40be 196b a23e 60be b63e
00000190: 1ccf 47be 56c2 69bf a8ea 393e 0357 643f
000001a0: 8b79 66bd 957a 89be a67c 6abf 6e3b 833e
000001b0: df8c 973e af6c 86bf 4c84 f33d aaeb 16be
000001c0: 220b d73e f614 4a3e 6ad4 7ebf faf0 22be
000001d0: 278f aaba 0e47 c5be 68d3 81be 613f 9cbf
000001e0: 1a9f 633e 4b9a 66bd d3b0 b13e c91f 0cbf
000001f0: 5258 b53e da0c a53e a791 f9be 4ace 04c0
00000200: fa89 99bf dc6b 71be 6edc d8bd e149 393d
00000210: a571 8dbf 81ad 35bf 39af f6be 5581 d3be
00000220: 73b7 0ebf 343b 8fbf 37ef b5be 24f7 ecbe
00000230: 7cf1 c5bf a333 793e 8029 41bd fb60 97be
00000240: 9180 07bf bbe0 e2bd 027a 023f e665 d23e
00000250: 6908 07be 2d1c b13e 6965 8bbe 43d4 ec3a
00000260: 8b35 f63e c495 b83f b0c0 e43e 9841 1bbf
00000270: 7e93 d53e 67ee 703f 0d99 3abf 8b36 12bf
00000280: be3b b7be dec1 9f3e 84e2 123f 5ffd 71bf
00000290: 14bd a33d f0cd d3be f5b3 933e 98ca d63e
000002a0: e5ba 0cbf e550 9c3d 9b35 05bf 2472 22bd
000002b0: 6064 f93e 2f8a 7b3e e655 043f bdf3 92be
000002c0: 3e57 d33d 3fcc 52bd 25b2 503f 48d0 79bc
000002d0: 1a2b 76be 01a9 e13e 3a8b 023f 41e0 47bf
000002e0: 5a8c 143f 619a 86be 70ad 343f b6c9 67be
000002f0: ae4d 1c3d 8106 2a3f 6a01 8e3d 87c1 6a3f
00000300: e29d 6dbe fd8e 283f 687e a9be c2e3 7d3e
00000310: 3be5 ed3e 5a8e 123f 6f79 f0be 4468 0fb9
00000320: 9552 4e3f 314f 9b3e 1142 e7bb 8ce6 f2be
00000330: ffdf cfbe 5912 ab3e 0b98 75be 266b 2dbe
00000340: 9ece f7be 5737 5dbe 8f96 353f 34b0 89be
00000350: e646 babe fc1d 74be 870f 033e 60b9 2e3e
00000360: 4d8f 043f b201 823e d16b 913e a611 84be
00000370: 587b cb3c 390d bc3e 76be edbc 6ae5 adbd
00000380: dfbe 153f 13f3 013f 8aa4 033f 52bc e53e
00000390: 38f7 96be da9f 9fbf 71e0 883f 9bf1 693f
000003a0: 909b 063f 5ab1 ffbe 0c2c 7ebf 2046 edbe
000003b0: 32ad e7be cb80 b0be efaf e8be ecdb 073f
000003c0: a047 2dbf be9e d3be 4575 71be 5836 ff3d
000003d0: df79 253f 18e5 cb3e b1cc e3ba 26f9 7cbe
000003e0: faa1 933e 48ee 583f f8a1 a0be ac9a cc3e
000003f0: 8438 bf3e e00b e03e 4b0b 033e 33a2 95bd

dense1.bias f4 [10]
0.13847597 0.12588581 -0.24713942 -0.41458836 -0.134036 -0.07319416 -0.048753634 -0.2398431
0.42238745 0.13309412
00000000: a5cc 0d3e 36e8 003e 1e12 7dbe ed44 d4be
00000010: bc40 09be d2e6 95bd e4b1 47bd 6e99 75be
00000020: 2b43 d83e d349 083e
